…
utionInfo":{"status":"ok","timestamp":1705885002511,"user_tz":0,"elapsed":4,"user":{"displayName":"Xiaochen Zoey Tan","userId":"02061312605743465288"}},"outputId":"91b67775-8e45-4178-f113-6495a60a3183"},"execution_count":23,"outputs":[{"output_type":"execute_result","data":{"text/plain":["==========================================================================================\n","Layer (type:depth-idx)                   Output Shape              Param #\n","==========================================================================================\n","BaselineNaive                            [1, 6]                    --\n","├─Flatten: 1-1                           [1, 42653]                --\n","├─Linear: 1-2                            [1, 1000]                 42,654,000\n","├─Dropout: 1-3                           [1, 1000]                 --\n","├─ReLU: 1-4                              [1, 1000]                 --\n","├─Linear: 1-5                            [1, 100]                  100,100\n","├─Dropout: 1-6                           [1, 100]                  --\n","├─ReLU: 1-7                              [1, 100]                  --\n","├─Linear: 1-8                            [1, 6]                    606\n","├─Softmax: 1-9                           [1, 6]                    --\n","==========================================================================================\n","Total params: 42,754,706\n","Trainable params: 42,754,706\n","Non-trainable params: 0\n","Total mult-adds (M): 42.75\n","==========================================================================================\n","Input size (MB): 0.17\n","Forward/backward pass size (MB): 0.01\n","Params size (MB)
…
utionInfo":{"status":"ok","timestamp":1705887548769,"user_tz":0,"elapsed":3,"user":{"displayName":"Xiaochen Zoey Tan","userId":"02061312605743465288"}},"outputId":"636b706d-da63-483d-ac2b-c6a25330b58f"},"execution_count":46,"outputs":[{"output_type":"execute_result","data":{"text/plain":["==========================================================================================\n","Layer (type:depth-idx)                   Output Shape              Param #\n","==========================================================================================\n","BaselineLSTM                             [1, 6]                    --\n","├─LSTM: 1-1                              [1, 221, 1024]            4,993,024\n","├─Dropout: 1-2                           [1, 221, 1024]            --\n","├─LSTM: 1-3                              [1, 221, 512]             3,149,824\n","├─Dropout: 1-4                           [1, 221, 512]             --\n","├─LSTM: 1-5                              [1, 221, 256]             788,480\n","├─Dropout: 1-6                           [1, 221, 256]             --\n","├─LSTM: 1-7                              [1, 221, 128]             197,632\n","├─Dropout: 1-8                           [1, 221, 128]             --\n","├─LSTM: 1-9                              [1, 221, 64]              49,664\n","├─Dropout: 1-10                          [1, 221, 64]              --\n","├─MaxPool1d: 1-11                        [1, 64, 110]              --\n","├─Flatten: 1-12                          [1, 7040]                 --\n","├─Linear: 1-13                           [1, 100]                  704,100\n","├─ReLU: 1-14                             [1, 100]                  --\n","├─Linear: 1-15                           [1, 6]                    606\n","├─Softmax: 1-16                          [1, 6]                    --\n","==========================================================================================\n","Total params: 9,883,330\n","Trainable params: 9,883,330\n","Non-trainable params: 0\n","Total mult-adds (G): 2.03\n","==========================================================================================\n","Input size (MB): 0.17\n","Forward/backward pass size (MB): 3.51\n","Params size (MB): 3
…
