…
ionInfo":{"status":"ok","timestamp":1705945410808,"user_tz":0,"elapsed":7,"user":{"displayName":"Xiaochen Zoey Tan","userId":"02061312605743465288"}},"outputId":"27252206-2ec4-4d77-f07a-2ef6c8baa2f9"},"execution_count":null,"outputs":[{"output_type":"execute_result","data":{"text/plain":["==========================================================================================\n","Layer (type:depth-idx)                   Output Shape              Param #\n","==========================================================================================\n","BaselineConv                             [1, 6]                    --\n","├─Conv1d: 1-1                            [1, 64, 220]              24,768\n","├─Dropout: 1-2                           [1, 220, 64]              --\n","├─Flatten: 1-3                           [1, 14080]                --\n","├─Linear: 1-4                            [1, 6]                    84,486\n","├─Softmax: 1-5                           [1, 6]                    --\n","==========================================================================================\n","Total params: 109,254\n","Trainable params: 109,254\n","Non-trainable params: 0\n","Total mult-adds (M): 5.53\n","==========================================================================================\n","Input size (MB): 0.17\n","Forward/backward pass size (MB): 0.11\n","Params size (MB): 0.44\
…
ionInfo":{"status":"ok","timestamp":1705945291058,"user_tz":0,"elapsed":3,"user":{"displayName":"Xiaochen Zoey Tan","userId":"02061312605743465288"}},"outputId":"66c56620-3d5f-4446-abf4-130d59fe1c29"},"execution_count":null,"outputs":[{"output_type":"execute_result","data":{"text/plain":["==========================================================================================\n","Layer (type:depth-idx)                   Output Shape              Param #\n","==========================================================================================\n","BaselineConvLSTM                         [1, 6]                    --\n","├─Conv1d: 1-1                            [1, 128, 220]             49,536\n","├─Conv1d: 1-2                            [1, 64, 219]              16,448\n","├─Dropout: 1-3                           [1, 219, 64]              --\n","├─LSTM: 1-4                              [1, 219, 128]             99,328\n","├─Dropout: 1-5                           [1, 219, 128]             --\n","├─LSTM: 1-6                              [1, 219, 64]              49,664\n","├─Dropout: 1-7                           [1, 219, 64]              --\n","├─MaxPool1d: 1-8                         [1, 64, 109]              --\n","├─Flatten: 1-9                           [1, 6976]                 --\n","├─Linear: 1-10                           [1, 100]                  697,700\n","├─ReLU: 1-11                             [1, 100]                  --\n","├─Linear: 1-12                           [1, 6]                    606\n","├─Softmax: 1-13                          [1, 6]                    --\n","==========================================================================================\n","Total params: 913,282\n","Trainable params: 913,282\n","Non-trainable params: 0\n","Total mult-adds (M): 47.83\n","==========================================================================================\n","Input size (MB): 0.17\n","Forward/backward pass size (MB): 0.67\n","Params size (MB): 3.65
…
