…
onInfo":{"status":"ok","timestamp":1705174768669,"user_tz":0,"elapsed":403,"user":{"displayName":"Xiaochen Zoey Tan","userId":"02061312605743465288"}},"outputId":"84441b7a-88b1-4454-b4ab-3ab5fa60129a","colab":{"base_uri":"https://localhost:8080/"}},"execution_count":null,"outputs":[{"output_type":"stream","name":"stdout","text":["Model: \"sequential_13\"\n","_________________________________________________________________\n"," Layer (type)                Output Shape              Param #   \n","=================================================================\n"," lstm_65 (LSTM)              (None, 221, 1024)         4988928   \n","                                                                 \n"," dropout_65 (Dropout)        (None, 221, 1024)         0         \n","                                                                 \n"," lstm_66 (LSTM)              (None, 221, 512)          3147776   \n","                                                                 \n"," dropout_66 (Dropout)        (None, 221, 512)          0         \n","                                                                 \n"," lstm_67 (LSTM)              (None, 221, 256)          787456    \n","                                                                 \n"," dropout_67 (Dropout)        (None, 221, 256)          0         \n","                                                                 \n"," lstm_68 (LSTM)              (None, 221, 128)          197120    \n","                                                                 \n"," dropout_68 (Dropout)        (None, 221, 128)          0         \n","                                                                 \n"," lstm_69 (LSTM)              (None, 221, 64)           49408     \n","                                                                 \n"," dropout_69 (Dropout)        (None, 221, 64)           0         \n","                                                                 \n"," max_pooling1d_13 (MaxPooli  (None, 111, 64)           0         \n"," ng1D)                                                           \n","                                                                 \n"," flatten_13 (Flatten)        (None, 7104)              0         \n","                                                                 \n"," dense_13 (Dense)            (None, 100)               710500    \n","                                                                 \n"," output (Dense)              (None, 6)                 606       \n","                                                                 \n","=================================================================\n","Total params: 9881794 (37.70 MB)\n","Trainable params: 9881794 (37.70 MB)\n","Non-trainable params: 0 (0.00 Byte)\n","_________________________________________________________________\n"]}]},{"cell_type":"code","source":["model.save('/content/drive
…
